racing_model.pth (torch, 62099 bytes, 8 tensors)

fc1.weight f4 [128, 31]
00000000: cffb b43e 5387 47be 685e 223e ae01 59be
00000010: 9deb 96be 80ef 64be 692c 2c3d 52f5 6a3d
00000020: 4e22 123e d923 9cbd 79fc a3bd c259 8fbc
00000030: c934 6d3e 70d4 aabd 1e3f 443c d5db 383d
00000040: ff4a 823d 6222 b2bd 3304 38bd 0f04 593e
00000050: 7dab c93d a9e4 5ebd bd84 d33d f003 65be
00000060: d91d 5f3e 3643 0ebe 446d b7be bd5e 543c
00000070: c1dc 8fbe 686b cdbc acf1 a63d 9e6c 663e
00000080: 0fbd 75bc b025 aa3e f7d1 833e 0285 aa3e
00000090: beb8 053e 1259 4b3e aa79 803e de29 943e
000000a0: 6161 6bbd d9e6 ce3c ef18 cebe 6585 7dbd
000000b0: 59dd 2bbe 968b f93d b000 bf3d a242 793e
000000c0: 03e2 bc3d 8268 4c3d ee87 d3bc 42f3 933d
000000d0: bad8 b0bd 6174 7abd 3857 21be 54fe 1a3e
000000e0: a4b3 cd3d 6d2a 313c 5d1b a6ba b518 21be
000000f0: ed86 083e b4c8 643e 7a62 f63d 17c3 133d
00000100: 3270 883e 95f2 a6be a8fd 993d a034 44be
00000110: 5831 20be e498 49be 8db5 87be ed75 a83d
00000120: 90ba 693e 2b33 3c3e 8881 bc3d f811 e93d
00000130: 7307 133e 9de7 1e3e deb7 553e ac0c 72bd
00000140: 4c97 623e 1608 3c3d c865 4c3d 3666 03be
00000150: beff 3d3e b2cc 763e 1c45 8fbe 7243 1c3e
00000160: 1713 1dbd 3b5b 43bc fcc8 863d 4fde 47bd
00000170: 08a2 4b3d f25d 8f3e 56a1 a9bc 182a 2bbd
00000180: b70c 8bbe f12b 6cbe ba1d e8bc 1bea 943d
00000190: 746a 87bb f11f 3dbd 4758 4d3d 85c9 1d3a
000001a0: 368b 053d f112 cf3c 843e 353d c646 003e
000001b0: 671b efbd 5175 ed3d 301f 4c3d 4d05 1c3e
000001c0: adfc 97bd 2f56 aebd 1838 2d3b 5ba2 083e
000001d0: e5eb b2bc 95c5 f93d 11f1 9abd 3d14 08be
000001e0: 52a9 703e 143e a1bc 1783 f4bd 5bf7 123d
000001f0: ebe9 afbe 3a0a 7fbd fddb 753e db94 f4bd
00000200: 90d8 323d 07be ab3d 2b91 9ebd 6321 c3bc
00000210: d71c ebbd 6f9a dcbc 0b5a 23be 829b 43be
00000220: 1166 8a3d 3e83 813d 9c02 34be e984 bbbd
00000230: 00a3 37be 1d06 54be f841 013e 918c 74bd
00000240: d3bb 2cbe 568b 543e 13e4 18be af00 8c3d
00000250: d66b 8c3d aee8 6e3e ab86 b53e dc41 2fbc
00000260: 7a1b bcbd ae15 28be a583 cfbd a0e1 82be
00000270: a1c9 67bd 4d7f 9fbe 14f0 fbbd fa23 873e
00000280: f797 fe3b 9d76 1abe 6248 4b3e 3ecb 14bd
00000290: d3aa 91be aee5 e2ba 9970 473b e2ce b6bd
000002a0: df11 24be 7b04 53be fe34 84bd 040a 27be
000002b0: c099 f4bb 35f4 d0bc f917 d7bc 8f11 6c3d
000002c0: c2fe 093e 32ae 63bc 542c 95bc e047 353d
000002d0: acc3 39bc 4bb5 e5bc 3c17 63be b4c5 69be
000002e0: 5d1c 003d 7e18 1e3d c1cb 17be 98c2 c43e
000002f0: d66a d4bd 1507 4c3c ee05 c93d 8c18 25bd
00000300: babe 703c d26b 533b 18a7 e53b ae02 26bd
00000310: 6113 7cbe a063 1cbe ab8b f3bc fca8 97ba
00000320: fec7 e0bd e11c 50be f4f8 10be 1b79 49be
00000330: 6778 bcbd ce0e e3bd c05b 00be 9ad9 ff3d
00000340: c370 89bd dc7d 393e ba91 99be 7c95 9f3d
00000350: 386a 133d f6ba 8c3e cf66 be3e ab67 c8bd
00000360: 36f4 30be da66 8b3d 2c42 983d e3f2 8f3d
00000370: 8fa2 44be 0e85 133e bb66 24bc 1d16 c03b
00000380: df9f cabe eb38 c5bd 4ebb 863d 992e 3f3d
00000390: 526f 063e c941 743d 844c 8b3d 940c 93bc
000003a0: 15eb 743d 53f7 95bd 64d3 05bd e46c baba
000003b0: 93cb 943d ea3c 46bd 93db 2fbe 31f4 38be
000003c0: efda 5d3d 2bbc 443e a194 a0be 7f4a 46be
000003d0: 8b70 a2bd ace8 93bd 860b 2a3b 6bf7 06be
000003e0: e134 e83a e698 27be 9045 9abe 8672 26bf
000003f0: 94a0 863d 3e75 c4bd fd22 633e 0e54 d63d
0.35348365 -0.19485216 0.15856326 -0.21192047 -0.29476634 -0.22356987 0.04203454 0.057362862
0.14270899 -0.07624025 -0.0800714 -0.017498855 0.23164667 -0.083413005 0.011977939 0.045131523
0.063619606 -0.08697964 -0.04492588 0.21192954 0.09847162 -0.054417286 0.10328052 -0.22364783
0.2178873 -0.13892826 -0.3582555 0.0129620405 -0.2809811 -0.02507563 0.08151564 0.22502372
-0.014998688 0.33231878 0.25746128 0.33304602 0.13058755 0.19858196 0.25092822 0.28938192
-0.057465915 0.025256561 -0.40253398 -0.061894793 -0.16783656 0.12184827 0.09326303 0.24341825
0.09222796 0.049904354 -0.025821652 0.07224132 -0.08635087 -0.061146144 -0.15755928 0.15136081
0.10044029 0.010813338 -0.001267295 -0.15732081 0.1333272 0.22342187 0.12030502 0.036074724
0.26648098 -0.3260695 0.07519084 -0.191607 -0.15643823 -0.1968723 -0.265057 0.082256176
0.22825074 0.18378894 0.092043936 0.113803804 0.1435831 0.15518041 0.20870921 -0.059094116
0.22128028 0.04590615 0.049901754 -0.12831959 0.18554589 0.24101523 -0.27982414 0.15260103
-0.038348284 -0.0119236065 0.065813035 -0.048795994 0.049715072 0.28001362 -0.020706814 -0.04178819
-0.27158138 -0.23063637 -0.028334487 0.072712146 -0.0041325632 -0.04617304 0.050133016 0.00060191035
0.032603465 0.025277587 0.044249073 0.12526998 -0.116751485 0.11594642 0.04983443 0.15236397
-0.07421241 -0.08512532 0.002643114 0.13343184 -0.021840999 0.12195889 -0.07565511 -0.1328897
0.2350209 -0.019682921 -0.11939066 0.035880428 -0.34358153 -0.062265612 0.240097 -0.119424544
0.04366356 0.08385854 -0.07742532 -0.023819631 -0.1148011 -0.026929108 -0.15952317 -0.1910229
0.06757749 0.063238606 -0.1757912 -0.0915621 -0.17933273 -0.20705457 0.12622821 -0.059704367
-0.16868524 0.20756277 -0.14930753 0.06836068 0.068565056 0.23330948 0.35454306 -0.010696854
-0.09184928 -0.1641452 -0.10132531 -0.25562763 -0.056588773 -0.3115181 -0.12301651 0.26394635
0.0077695805 -0.1508431 0.1985183 -0.03632664 -0.2845064 -0.0017310882 0.0030432104 -0.089261785
-0.16022442 -0.20607178 -0.0645542 -0.16312414 -0.0074646175 -0.025507072 -0.026256548 0.057633933
0.13476089 -0.013896512 -0.018209614 0.044258 -0.011338156 -0.028040549 -0.22176832 -0.22829324
0.03127705 0.038597576 -0.1482382 0.38429713 -0.1037194 0.01245286 0.09815584 -0.040306613
0.01469391 0.003226031 0.0070084445 -0.0405299 -0.24616767 -0.15272379 -0.029729685 -0.0011570747
-0.109756455 -0.20323516 -0.14157468 -0.19675104 -0.092026524 -0.11086808 -0.12535 0.12492676
-0.06710961 0.18114418 -0.29993993 0.07792184 0.03598997 0.2748639 0.37187812 -0.09785398
-0.17280659 0.06806727 0.07434496 0.07028749 -0.19202636 0.14406225 -0.0100342585 0.005862011
-0.39575097 -0.09629997 0.06578694 0.0466753 0.13128403 0.05963305 0.068017036 -0.017950334
0.059794504 -0.07322564 -0.0326723 -0.0014223126 0.07265391 -0.048397936 -0.17173605 -0.18061902
0.05416387 0.19212405 -0.31363395 -0.19364356 -0.07931622 -0.07222113 0.002594681 -0.1318032
0.0017715954 -0.1636692 -0.30131197 -0.650185 0.065735966 -0.09592675 0.22181316 0.10465251

fc1.bias f4 [128]
00000000: 9596 86be 3e67 4dbe 43cd 3f3e 9825 b13e
00000010: 185a 843d c34f 483e 351f 123e 4d38 6d3e
00000020: 7535 1bbd caa9 8a3e c395 093e cf7b 0fbe
00000030: cfc6 683e 6c31 903e d3b6 14be 483d dd3d
00000040: 3c5d a93e 32d5 73be 9538 093e 8ca6 d0bd
00000050: fda1 363e e703 9dbe 708d aebd ae4f 383e
00000060: c614 9dbe 1173 d83d 2025 dbbd 9bc5 303e
00000070: 9cef 95bd 6b5b a13e 8f57 49bd 1480 473e
00000080: 1df3 783e dc42 e93d be9b 14be 7a8e 483d
00000090: 7490 c23d 6295 643e 8a77 943e 0f1c 3b3e
000000a0: 3c2f 6a3e 964f 31be 6643 77be 1862 c03e
000000b0: 47df dbbd 5e58 693e cc41 313d 4bec 413d
000000c0: 2214 8cbe c783 04bd e09d 123e f831 0bbd
000000d0: a00e 2f3e 5e7d a43d c5d6 63bd 11a4 b9be
000000e0: 3922 4f3d 4782 c13e 7b58 08be a150 c3bc
000000f0: bb0c 8e3e 1155 dc3e c6d7 fe3d 2276 d3bb
00000100: 035d 5c3d c3a0 20bd 28bf 29bd c86b 843e
00000110: 2e45 e63d 4aba 6abd 6d8e 49be df4b 613d
00000120: 8a62 633e 79ac aabd de59 5c3e 0b49 02be
00000130: 7511 d13e a2f4 293e bc5c 9b3a 4147 633d
00000140: a92f d2bc 39f1 debe 7d86 a83e 8b9a 2ebe
00000150: 0070 263e db88 7f3d 352c 2c3e 4938 41bd
00000160: 671c 51bd 001a 513d 7e0a 723e 35a6 b83e
00000170: 6983 a33e a0d9 b73e d236 3e3e 8b01 383e
00000180: 246e 96be a4f1 a93e 1f87 773d 4ce3 6b3e
00000190: b89d d83d 3380 b13e 0c5e 12bf ec30 ad3e
000001a0: c57c 893e cc80 39bd c734 5e3e 4033 8cbd
000001b0: 2c99 a13d 8e79 a03e 771e 313e de80 673e
000001c0: b1b3 913d 9ba0 c9bd 6fab 8a3d e2b6 b8bd
000001d0: 95ab a1bc 4187 b43c f909 e43c 3820 863e
000001e0: c6e1 be3c 86b0 87bd aa3f a9bd 448d 9bbd
000001f0: daf0 f6bd 4504 a13e 1fc4 94bd ee17 5fbc
-0.2628676 -0.20058915 0.18730645 0.34598994 0.064624965 0.19561677 0.14269717 0.23166008
-0.037892777 0.27082664 0.13436036 -0.14012073 0.2273209 0.28162706 -0.14522867 0.10802704
0.33078945 -0.23811796 0.1340049 -0.10188016 0.17835231 -0.3066704 -0.08523071 0.17999145
-0.3067991 0.10568822 -0.107004404 0.1726288 -0.073210925 0.3151506 -0.049155768 0.19482452
0.2431149 0.113897055 -0.14512536 0.048964 0.095002085 0.2232261 0.2899745 0.18272422
0.22869581 -0.17315516 -0.24146804 0.3757484 -0.10735946 0.22787616 0.04327564 0.047344487
-0.2735911 -0.032352235 0.14318037 -0.0339832 0.17095423 0.080317244 -0.055624742 -0.36257985
0.050569747 0.37794706 -0.13315003 -0.023842158 0.27744088 0.4303365 0.12443499 -0.0064532915
0.05379964 -0.039215814 -0.041442066 0.2586348 0.11243664 -0.057306565 -0.19683237 0.055003997
0.22205558 -0.08333678 0.21518657 -0.12723176 0.4083363 0.16597226 0.0011853199 0.055487875
-0.025657492 -0.43543413 0.32915106 -0.17051141 0.16253662 0.062386375 0.16813739 -0.04717282
-0.051052477 0.051050186 0.23636815 0.36064306 0.31936195 0.35908222 0.185756 0.17969339
-0.29380906 0.3319217 0.060431596 0.23035926 0.105769575 0.3466812 -0.57174754 0.33826387
0.26853004 -0.045288846 0.2169982 -0.06845713 0.07890543 0.3134274 0.17296778 0.22607753
0.071143515 -0.09845086 0.067709796 -0.09019257 -0.019735137 0.02203715 0.027836787 0.26196456
0.023301017 -0.06625466 -0.08264096 -0.07595304 -0.120576575 0.3144857 -0.0726397 -0.013616545

fc2.weight f4 [64, 128]
00000000: 1b09 233e 4658 08bf 62c9 97be 2f7e eb3e
00000010: dac8 b73d e828 c03d 3d0f 8f3e 978c 043c
00000020: 857b c43e 0312 333e 04e7 0abe f14e 92be
00000030: 5543 93bd 156e be3e 357d 93bd fcd9 883e
00000040: c11c 85be e12e 45be e717 173e bec3 2fbd
00000050: d1b4 543f f98c 8d3c c1f7 5cbe 89f2 c83e
00000060: 4219 dfbe 0ca6 4f3e e830 53be a5d3 1abe
00000070: 6b0b adbe cf8d ad3d 16b4 913e dd81 0a3e
00000080: c998 cf3d ef1a 7a3e 032a cfbe 3447 99be
00000090: f7d8 07bf e248 cb3e c5ae 983d f0f0 ac3d
000000a0: 82bf 413e 9637 69be e8fe bfbc 8fe5 07bf
000000b0: ceab efbe dc4d 08be d2ab 663c 4c65 883d
000000c0: b44b 01bd 9190 543b 1e00 5e3e 2b36 113f
000000d0: 6e09 5b3e a91a dd3e be2c 2f3e d159 b43d
000000e0: 8981 8a3e 8f1b 143e cf63 a13e 7e71 3ebe
000000f0: f929 86be 3a6c d8be 4877 94be 63a2 b13e
00000100: 2024 58bd 7450 dbbe f4f4 2f3e b640 06bf
00000110: f7c3 df3c b3bd 7cbe 6943 83be 8840 683d
00000120: ee36 33be e286 9d3e 10e8 793d 43ed 3fbe
00000130: 8073 853e f976 86be 899f ddbd d185 ee3c
00000140: 1efb 533e 1a6d b03e 2924 27bf 9cc3 eebe
00000150: 12df c7be bca6 bbbe e0be fd3d 90cf 37bc
00000160: 2a57 06bd e05c c9be 9088 953e 909f 7e3e
00000170: 1fe7 7dbd b045 2d3e b946 85bd 637e 0d3f
00000180: 8316 5d3e ab5f f2be 7b16 1b3e b2f6 aabe
00000190: 4b09 953e 1403 7ebd 6e31 afbe d270 bfbe
000001a0: 57e4 42be bce0 133e 8e18 163e e52b 36bd
000001b0: 5344 75be 7d0b 253d 177d 86be 8fed 003e
000001c0: f1a4 3e3d 8382 05bf f27d 023e f2ad bdbe
000001d0: bd37 49be 2c02 34bf 25d3 e8bc 87c4 543d
000001e0: 2273 a0be 8fe3 88be 90e4 8e3e 7010 74be
000001f0: 4bdb 24be 4238 e63e 1e43 f6be 0fbf 01bf
00000200: c013 2abe 999c 33bd ab1c 2f3d 4f83 253d
00000210: a198 0a3d e586 cf3d 5af2 263e bcfb 943c
00000220: 02c5 f539 9fe6 8b3d aceb 00bd d292 c3bd
00000230: c55e 0d3e 8bdb d4bd d745 7fbd 9a62 603d
00000240: f9e0 13bd 34c8 2dbe d7b4 373e 7856 613d
00000250: df19 dc3d 8bf6 1fbe 79c7 303d d3a2 59bd
00000260: a7d9 b03d a08f 57bd 3b3b bc3d 6a09 233e
00000270: ed8b a9bc cb49 543e dfa6 9d3d d969 dc3d
00000280: d6c2 7d3d e649 803d c4f0 16be 9d72 8e3d
00000290: 1b07 41bd e83f 1e3d fa51 d83d c9ff ddbb
000002a0: 63a0 1dbd b7af c2bd ae3b 593c af99 953d
000002b0: 4d79 80bd c27f c03d 8e63 51bc 7682 273d
000002c0: 0fa8 39bc 03b9 233d c5d8 ba3d 3c48 83bc
000002d0: cce5 7dbd 627d e53c 01e6 fa3d 0917 82be
000002e0: 9387 813c 93e2 1a3e 98ff ba3d 8961 823d
000002f0: a49a e13d 65ee 2c3e 8e0b d73c 6a92 7a3d
00000300: ed9f 123c 843e 7abd 9d6c cfbc 41f8 953d
00000310: 441d 063d 5f9b 023e ff56 4bbe 5b63 e63c
00000320: e9ed aabc 70d8 0b3e 8469 8abd 1a5a 83bd
00000330: a154 0a3e 01be 013e 3cd8 3fbd 3e4a dfbd
00000340: 6a1d e7bd d451 35bd 8efc 293d 2e2d 0fbe
00000350: 2b7b f5bd 48b7 04bd 5ccc 443e 22d6 c8bd
00000360: 356f 623d e6e5 9a3d daab a03d fb83 443d
00000370: 96d2 313d 2497 b73d 5105 973c b680 fe3d
00000380: d0e3 b5bd 233e b43d 419f 093d 05a1 19bc
00000390: 2c19 233c b50b ddbc 0c13 20be fb15 ad3d
000003a0: 837f 9c3d 2192 37be f50b 293c b193 e2bd
000003b0: d2b8 b6bd f21a 783c 54bb 653d 4f6a 02bb
000003c0: 8b1a 133d 303a db3d c004 bc3d b064 22bd
000003d0: fa8d b9bb b80b 3b3d bcca 7dbd 5c5e 843c
000003e0: 763a 5bbe 4b37 4abd d4ad 03be 9d8f d5bd
000003f0: 17f0 ebbd 991e 4f3e aa48 c33d 7859 27be
0.15921442 -0.53259695 -0.2964583 0.45994708 0.08973856 0.09382802 0.27941313 0.00809016
0.38375488 0.1748734 -0.13564688 -0.28575853 -0.07190577 0.3719336 -0.07201616 0.2672881
-0.259985 -0.19256164 0.14755212 -0.042911284 0.83088404 0.017279135 -0.21578886 0.3924754
-0.43573958 0.20278186 -0.20624125 -0.15119798 -0.33797774 0.084743135 0.28457707 0.13526101
0.10136563 0.24424337 -0.4046174 -0.29937136 -0.5306544 0.39704043 0.0745521 0.08444393
0.1892071 -0.2277511 -0.023436978 -0.53084654 -0.46810764 -0.13310951 0.014079051 0.06659946
-0.031566337 0.00324348 0.21679732 0.5672328 0.21390316 0.43184403 0.17106912 0.088061936
0.27051952 0.14463638 0.3152146 -0.18597981 -0.26203898 -0.4227007 -0.28997254 0.34694204
-0.052768826 -0.42834818 0.17183286 -0.5244249 0.027315123 -0.2468174 -0.25637367 0.056702167
-0.17501423 0.3076697 0.061012328 -0.18742852 0.26064682 -0.26262644 -0.108214445 0.029116543
0.20701262 0.34458238 -0.6528955 -0.46633613 -0.39037377 -0.36650646 0.12389922 -0.01121892
-0.03279797 -0.3932867 0.2920575 0.24865556 -0.061987992 0.16921115 -0.0650763 0.55270976
0.21590619 -0.47338614 0.15145294 -0.3339134 0.29108652 -0.062014654 -0.342174 -0.37390763
-0.19032417 0.14441198 0.14657804 -0.044475455 -0.23951845 0.04029416 -0.2626731 0.12590621
0.04654402 -0.5215227 0.12743357 -0.37046772 -0.19650169 -0.70315814 -0.028420994 0.051945236
-0.3133784 -0.26736113 0.27908754 -0.23834395 -0.16099279 0.44964796 -0.4809808 -0.5068216
-0.16609097 -0.043850515 0.04275195 0.04040843 0.033836965 0.10133151 0.16303387 0.018186443
0.00046876824 0.06831097 -0.031474754 -0.09549488 0.13805683 -0.10393437 -0.062322464 0.054781534
-0.036103223 -0.16970903 0.17940079 0.055014104 0.10747122 -0.15621392 0.043158982 -0.053133797
0.08635264 -0.052627206 0.09190985 0.1592156 -0.020696605 0.20731275 0.07697844 0.10762376
0.06195339 0.06264095 -0.14740282 0.069554545 -0.047125917 0.038635164 0.10562511 -0.0067748767
-0.038483035 -0.09506171 0.013258858 0.073047034 -0.06273136 0.09399368 -0.012780083 0.0408959
-0.011331572 0.039971363 0.09123377 -0.016025655 -0.06198673 0.028013889 0.12250901 -0.254082
0.015811717 0.15125494 0.09130782 0.063662596 0.110158235 0.16887815 0.026250627 0.061174788
0.008949262 -0.061094776 -0.025320346 0.07322741 0.032742754 0.12754582 -0.19857405 0.028123548
-0.020865398 0.13656783 -0.06758407 -0.0641367 0.13508846 0.12670137 -0.046837077 -0.109028324
-0.11284907 -0.04426749 0.04150062 -0.13982078 -0.11986383 -0.032401353 0.19218582 -0.098064676
0.055281837 0.07563381 0.07845278 0.04797743 0.04341372 0.08964375 0.018435152 0.124268934
-0.088813424 0.08800914 0.033599142 -0.009376769 0.009954732 -0.026983121 -0.15632266 0.08451458
0.076415084 -0.17926838 0.010317792 -0.11063326 -0.089219704 0.015143143 0.056086853 -0.001989979
0.035913985 0.10704458 0.091805935 -0.039646804 -0.005662677 0.045665473 -0.06196092 0.016158275
-0.2140902 -0.049369138 -0.12859279 -0.10427783 -0.11520403 0.20226516 0.09535344 -0.16342723

fc2.bias f4 [64]
00000000: 27e6 323e d17b a83d b4f0 af3d 18e8 833c
00000010: 4059 62bd 8ee1 953a d2ee 3f3e 87fd 5c3c
00000020: eb72 e33c eeb6 4abe 6d84 2c3c 20b0 7a3c
00000030: c1fa 32bd eaaf cabb 799e 0bbc f1a9 023d
00000040: 780b 95bd d14a 39bd 13d5 a93d a183 ef3c
00000050: e714 dbbd c034 0f3d 80c8 933e 7c75 ff39
00000060: f63b 253e a921 153d c8f2 993d 328f 913b
00000070: 4d9a fe3c 1362 d7bc 47c1 75bc 4c1f ef3c
00000080: ecd0 ba3d 8670 f63c 853d 4bbe 1062 06bd
00000090: 7638 573d 63e2 c93d 3387 86bd 3604 c5bc
000000a0: ce9f b4bd e464 013e a2b1 5fbd f700 4c3e
000000b0: 5639 0a3d 823f 2d3e 4434 b33d a65c 683c
000000c0: 2158 173e 0452 2c3e d7e7 c6bd 037b be3d
000000d0: 8cd2 5b3e 0939 143d f46d 243e f9d1 e33d
000000e0: 1ef5 863d d097 22ba 9cef 7a3d bea3 113e
000000f0: bbe4 1a3e ab8b 3abd b55c e23b 104d 323e
0.17470609 0.08226741 0.08590832 0.016101882 -0.055260897 0.0011435018 0.18743446 0.01348818
0.027764758 -0.19796345 0.01052962 0.015300781 -0.04369617 -0.0061855214 -0.00852167 0.03190035
-0.07277578 -0.045237366 0.08292594 0.02923757 -0.10697346 0.034962416 0.28863907 0.00048724923
0.16136155 0.036409054 0.0751701 0.004442119 0.031079436 -0.026291883 -0.014999694 0.029189728
0.0912188 0.030082952 -0.19847687 -0.032808363 0.05254408 0.09857633 -0.06568756 -0.02404986
-0.08819543 0.12636143 -0.054612763 0.19922243 0.033746086 0.16918758 0.08750203 0.014182245
0.14779712 0.16828161 -0.09712189 0.093008064 0.21467036 0.036187205 0.16057569 0.111240335
0.06589721 -0.00062024314 0.061263666 0.14222619 0.15126316 -0.045543354 0.006908024 0.1741221

fc3.weight f4 [32, 64]
00000000: 63ca a4be db26 bbbd 92c0 67bd dc7f 3c3d
00000010: b4dd 213d 7dd6 b7bc 310d b3bd e5f5 a03d
00000020: db3a 513e 62a3 7d3e c7fb 96bd 9674 3bbe
00000030: 3bc9 8a3e 5996 f1bd 7df7 023e db5f 943d
00000040: 07bd cdbd 812c 3bbe ff60 f13d b05e 7fbd
00000050: 00fe b3be 43da 5fbe 74e2 93be 5c3c 5abc
00000060: 5d9d 7b3d ed57 033e b798 cebe 5926 67bd
00000070: c3ac b63d 7d7b 9fbd d4e5 143d 0e06 ce3d
00000080: e58a ed3c 9118 16bc 1058 97be 9c22 633d
00000090: a8be 333e bc93 473d 0e9e c73d 699b cd3d
000000a0: 1cb5 113d bb09 f13d 08d4 18be 444c 84be
000000b0: 0fea 53be a93c d3bc ce81 a03a a0b4 9abd
000000c0: 6ca3 263c a708 a5bc 947e 6dbd 19ca 06be
000000d0: ca58 703d 9fbc 55bd 2461 043e 9a69 a93d
000000e0: a4e1 033e d4a0 93bd 0765 923c bb74 07be
000000f0: 6cad 403d da1f cdbd 8565 f7bd 8d34 afbd
00000100: 3854 a23e 73e6 f23d 311d fcbc 6e15 dc3d
00000110: cfe8 33be 01f5 c43d ea97 be3d ca3a 053e
00000120: 9500 463e ef55 453e 4595 28be 77f6 4dbe
00000130: fcd8 8e3d d22b d4bc 66a0 f33d 5c34 243e
00000140: a1ea 37be ff84 58be 33ab d43d 0653 77bb
00000150: a23c b3be e2b0 fdbd 3a06 e93b 9da8 1e3e
00000160: eab7 0a3c aed1 88bd da40 f5be 0fbc ce3d
00000170: 11e4 eb3d 92b7 89bd f11d 9a3d bff9 da3d
00000180: 6950 c53c a267 383e 2950 a0be 4340 bf3b
00000190: 29c1 213e 4ad2 e7bc c0b4 9cbc 3a75 4e3c
000001a0: ffb4 f8bd 2962 a73e 7c10 b0be b887 e3bd
000001b0: 832a a1bc 0b3c b5bd f4c1 713e 4177 93bd
000001c0: 380c 8f3e 63af c73e 2ee4 28be 85ad ad3d
000001d0: c299 7a3c 2d0c 9bbd 74c8 e5bd 84ea 24bd
000001e0: 51cf b83d 37bb 29bd 386f efbc 054d 9c3e
000001f0: e7a7 2c3d ff71 113d fd6a 54be 7279 673d
00000200: a411 09bf db45 373b 8334 013e c93a 163d
00000210: 4648 acbc 68d8 973d 4c56 9e3e ffa1 dabd
00000220: 2cad d2be a181 473e 7e7b 123e 0f5b e43d
00000230: b0a8 ae3d 3728 6f3c 2458 82bb c25f a7bd
00000240: 4925 c33d 9420 353c c72c 15be b431 183e
00000250: e121 86bd e132 493d 02e5 d13d b6c8 c83d
00000260: 3338 9ebd 2e13 b3bd 7cf4 a43e ab58 60be
00000270: 7db0 6fbc 4b14 8ebd 40f8 01bf 96af b33c
00000280: 5968 55bd 2732 c8bd c0db 15be 9db9 d53d
00000290: 72ff 44bd 0cf4 21bc af0b 553d f25d 17bd
000002a0: 2c4d da3c 020e 95be 910c 573e f3d0 803c
000002b0: 72f1 5d3d cd6c 943c 4262 2e3d f2a6 babd
000002c0: e7f2 ebbe 68ff e5be 4c77 8dbd 2385 68bd
000002d0: 48bb cdbb eeda d4bd f9da c5bd 69b8 0f3e
000002e0: 9677 af3d 35e7 c6bc 8d86 f83d 1a71 77be
000002f0: 0622 0bbd ec0c afbe 54cf 523d 0662 3f3e
00000300: c95f 91bf 9f38 a0bd 85f2 7f3d c5ce 35be
00000310: 9b25 d0ba d8c9 523e ef59 b93e 46ac 3f3d
00000320: 7bbc 01bf 99ac 32bc 7199 78bc 584b 303e
00000330: 8dd4 fc3b 1679 80bd f5a9 df3d 4413 cfbd
00000340: c8a2 cbbd 3f60 073d dc18 6d3d a068 cbbb
00000350: de2b 07be 7956 b53d 471a 813c 7158 c1bd
00000360: eeaa 74bd 0035 bc3d b332 623e 2cf7 c2be
00000370: 205b 383e f07d 083e 80ad 75be 8fb8 1b3e
00000380: 95e8 093e 89a1 40bc dc4c 57bd 00d0 8ebe
00000390: 37c0 45be f995 a73d 036c 6abd 37bb 713d
000003a0: 5cac 243f 134d 74bd fcab 723b b985 e73d
000003b0: 5640 d13d 42e2 133e ba7f 2d3e 36a9 a53c
000003c0: 273f 74bf 009a 5abf 03ee 43be 43f2 3ebd
000003d0: 7ca8 0a3e 7c6d 95bd 9ad3 f93d e59c e6bd
000003e0: eb22 37bd c9d5 6abd bd8c a0bd 4461 11bf
000003f0: 7409 11bd 3d33 e7be 1ac8 1a3e 1393 8a3d
-0.3218566 -0.091382705 -0.056580134 0.046020374 0.039518073 -0.022441143 -0.087427504 0.07859401
0.20432608 0.24769357 -0.073722415 -0.18306193 0.27106652 -0.11796255 0.12789722 0.072448455
-0.1004582 -0.18278696 0.11786079 -0.06234616 -0.35154724 -0.21860604 -0.28883708 -0.013320055
0.06142937 0.1282651 -0.40350887 -0.056433056 0.089196704 -0.077872254 0.036351994 0.100597486
0.028996894 -0.0091611305 -0.29559374 0.055452928 0.17553198 0.048724875 0.097469434 0.10039408
0.03557311 0.11769434 -0.14924634 -0.25839436 -0.20694755 -0.025785761 0.0012245716 -0.07553983
0.010170799 -0.020145727 -0.057982042 -0.13163032 0.058678426 -0.052181836 0.12927681 0.08272095
0.12879044 -0.0720841 0.01787044 -0.13228123 0.047040388 -0.10015841 -0.1207991 -0.08554945
0.3170488 0.11860361 -0.030775638 0.10746275 -0.17569278 0.09617043 0.09306319 0.13010707
0.1933616 0.19271062 -0.16463192 -0.2011355 0.0697498 -0.025899801 0.11895828 0.16035599
-0.17960598 -0.21144484 0.10384216 -0.0037738695 -0.35007197 -0.12387253 0.007111338 0.15494008
0.0084667 -0.06680618 -0.4790104 0.10094463 0.115181096 -0.067244664 0.07525242 0.106921665
0.024086194 0.18008283 -0.31311157 0.005836518 0.15796341 -0.028298516 -0.019129157 0.012601191
-0.12143897 0.32692078 -0.34387577 -0.11109871 -0.019673591 -0.08849343 0.23609143 -0.0720048
0.2793901 0.39000997 -0.16493294 0.08480362 0.015295448 -0.07570682 -0.11219874 -0.040262714
0.090239175 -0.041438308 -0.029227838 0.3052751 0.04215231 0.035509106 -0.20743938 0.056512304
-0.5354254 0.002796522 0.12617688 0.036677156 -0.021030556 0.07414323 0.30925214 -0.106754296
-0.41147745 0.19483043 0.14304921 0.111501805 0.08528268 0.01459699 -0.0039777923 -0.08172561
0.09528596 0.0110551305 -0.14567862 0.1486271 -0.06549431 0.049120788 0.10248758 0.098039076
-0.07725563 -0.087438926 0.32217777 -0.21908824 -0.01462948 -0.06937464 -0.50769424 0.021934312
-0.052101467 -0.09775191 -0.14634609 0.104357935 -0.048095174 -0.009884845 0.052013095 -0.036954828
0.026648127 -0.2911225 0.21000887 0.015724635 0.05418534 0.018118287 0.042574175 -0.091138735
-0.46083757 -0.44921422 -0.0690752 -0.056767594 -0.006278429 -0.1039332 -0.09660906 0.1403519
0.08567731 -0.02428017 0.121350385 -0.24164239 -0.033967994 -0.34189546 0.051467255 0.18689737
-1.1357356 -0.078232996 0.062487144 -0.17754658 -0.0015880348 0.2058481 0.36201426 0.046795152
-0.50678223 -0.010905408 -0.015173302 0.17216241 0.0077157677 -0.06273095 0.109210886 -0.101110965
-0.099431574 0.03305077 0.057885036 -0.0062075406 -0.13200328 0.08854384 0.0157596 -0.09440697
-0.059733324 0.091897964 0.22089653 -0.38079202 0.18003511 0.13329291 -0.23991966 0.15207122
0.13467629 -0.011757263 -0.052563533 -0.27893066 -0.19311605 0.08182902 -0.057231914 0.059016433
0.643255 -0.059643816 0.003702878 0.113048024 0.10217349 0.1444178 0.16943255 0.020222288
-0.9540886 -0.85391235 -0.19133763 -0.046617758 0.13540834 -0.07296273 0.12198563 -0.11260394
-0.044711035 -0.057332788 -0.07839344 -0.5678904 -0.035409406 -0.4515628 0.15115395 0.067663334

fc3.bias f4 [32]
00000000: 1acd dc3d 8e3c 21bd 0794 043e 95bc 283d
00000010: 1045 3f3e 6cb6 c93d 74e6 b83d 0e14 0cbd
00000020: 19fc acbd 484e e23d fe6d a5bd c296 023e
00000030: 7930 1dbd bbd1 a63d 1f4e 023e ac18 903d
00000040: 8e5e e2bb e2c9 f7be f5d2 9d3d c748 253d
00000050: be15 82bd 66f4 07bd ab59 153e d21a 633d
00000060: 45b6 233e 114d d53c 57a1 3d3d e3f5 913d
00000070: 9d1a b33d 4019 5ebd 6a1e 1dbc 5937 fe3c
0.107813075 -0.03936439 0.12947093 0.04119547 0.18678689 0.09849247 0.090283304 -0.034198813
-0.08446521 0.11050087 -0.0807762 0.12752822 -0.038376305 0.08145472 0.12725113 0.07035956
-0.0069082445 -0.48396212 0.077062525 0.04035261 -0.06351803 -0.03319206 0.14584987 0.0554455
0.15987499 0.026037725 0.046296444 0.07126977 0.087453105 -0.0542233 -0.009589771 0.031032251

fc4.weight f4 [6, 32]
00000000: eb80 c1be 4814 bbbe ff47 e53e d161 d13e
00000010: 242d 7b3e cb93 83be 6187 623e 8da0 a03e
00000020: d80a 62be a0d9 0d3f 48ab 8d3e d3fe 96be
00000030: 71c4 67bd 9ee9 d43d 64b2 a93b a812 323e
00000040: 08af 33be c234 0cbf a123 82be 34bb c93e
00000050: 2262 243e aad5 03be e38b 40be 8c2d de3d
00000060: 1d48 9ebe d16b d7bd 95fc 7abe 8e2f fb3d
00000070: a24f 87be b986 2b3e 3d57 d9be dc23 bebd
00000080: 0cf2 623d 9289 0b3f a609 95be fba2 1fbf
00000090: acc9 0f3e bdc5 debc 8b42 b3bd 14f6 5c3e
000000a0: 1663 93be b326 173f 4bca 6dbe 7757 5b3e
000000b0: 2d3c 30be fbbe 3f3e d0f0 e03e b0e6 01bf
000000c0: 918e 973e 7ca4 4bbd 7847 51be 5f2d 16be
000000d0: d400 af3e dc4d c33c 1447 a0be 4573 e6bc
000000e0: 557f 1f3e fe69 0cbf e2b4 8ebe 61cc 31be
000000f0: 45d5 aabe 04c4 503d 561e 053f 187d de3e
00000100: a766 b63d 07ea d6bd c437 a8bd a33c fb3d
00000110: 6a34 e23e 3ee7 1c3e 28b7 d2bd 8e1d a43e
00000120: 1eba 063e 9cbf 4fbd 89ce 863d 6016 10be
00000130: 1566 603e bf6d cc3d 4707 bd3c ecc9 00be
00000140: f3ae 27be e760 ecbe ba79 7e3d c4df 543d
00000150: 24d5 9cbc 05f1 073e 7edf 483e aa71 3ebe
00000160: d15c 64be 5dc8 103d 822c 793e f37e 79bd
00000170: 9a6b af3d e492 143d 3f44 3f3e 6a6a 2f3e
00000180: 508e 8cbd f512 0abe 745c d73d e223 b9bc
00000190: 5d12 e339 5d75 1cbe 7195 46be 9026 903d
000001a0: ca14 d73d 8004 66bd 1475 8f3d d454 42be
000001b0: 8b23 27bd e252 b53d 89a0 b53d e3e0 283e
000001c0: 17e6 c63d 0720 07bb 830d b83d 42ef 37be
000001d0: 30db fbbd e29b 903d eb3f c23c 35af 1d3d
000001e0: be17 d6bd f664 2a3e b0f9 7cb8 1bf2 3ebd
000001f0: 902b c8bd 2ec7 c53d 9764 b23d b52a 513e
00000200: a96b 8b3d 0b29 debd 3862 c6bc 54d5 d53c
00000210: f8df 9fbc d501 21be 590d 2abe 89a3 023e
00000220: 5af0 32bd 0a76 d13b d71b 5a3d 3f98 42be
00000230: ba9f 403d 8a20 9abc 8297 bdbd 0e57 ce3b
00000240: 4104 3b3e 5489 aebb df28 efbd 9317 50bd
00000250: 9fb1 82bd b027 1bbd 6ecb 6bbd 88c4 413e
00000260: 6b62 b53d dd72 0d3e 78e8 eb3a 70d6 703d
00000270: 65aa 45bd a63e bf3d 52b6 683d 4bed c93d
00000280: 1d51 d43e c82b dc3e 9d38 413e aeb3 3abe
00000290: 02e7 31be 557c 9c3d 0c7d 96be 0ad3 aa3e
000002a0: c30b 043f 24fc 3a3e 7a86 c13d dd7d 143e
000002b0: f45a d3be deef f8bd 7a3d a5be 263f 803c
000002c0: 4c8c 9e3d 839a 10bf f43a 9e3e 5936 123e
000002d0: 8b7b bb3e 5030 13be bfd0 23bd 5013 7dbd
000002e0: a363 15be 69d5 143e 0c31 4cbe 9577 a53e
000002f0: 6338 f03c ba45 e3bd 1d2e 0dbd 1cf3 99bd
-0.3779367 -0.3653891 0.4478149 0.4089494 0.24528939 -0.25698695 0.22121955 0.3137249
-0.22074449 0.55410194 0.2766974 -0.2949129 -0.056583825 0.103961214 0.0051787365 0.1738993
-0.17547238 -0.54768 -0.25417808 0.39400637 0.1605306 -0.12874475 -0.18803363 0.10848531
-0.30914393 -0.10518611 -0.24510415 0.1226493 -0.26427943 0.16750611 -0.4244937 -0.092841834
0.055406615 0.5450679 -0.29108924 -0.62358063 0.14041775 -0.027193898 -0.087529264 0.21578246
-0.28786534 0.59043425 -0.232217 0.21420084 -0.17210455 0.18725197 0.43933725 -0.50742626
0.29600957 -0.04971741 -0.2043742 -0.14665745 0.3418032 0.023840837 -0.31304228 -0.028131137
0.15575917 -0.5484923 -0.27872378 -0.1736312 -0.33365837 0.050968185 0.51999414 0.43454814
0.08906298 -0.10493856 -0.082137614 0.12267425 0.44180614 0.15322587 -0.102888405 0.32053798
0.13156936 -0.050719842 0.06582362 -0.14071035 0.21913941 0.0998187 0.02307476 -0.12577027
-0.16375332 -0.4616768 0.062127806 0.051971212 -0.019144602 0.13275535 0.19616506 -0.18598047
-0.22301032 0.03534733 0.24333385 -0.060912084 0.08565445 0.0362729 0.18678378 0.17130437
-0.068630815 -0.13483794 0.10515681 -0.022600118 0.00043310496 -0.15279146 -0.19392945 0.07038605
0.10502012 -0.056156635 0.07004753 -0.18977672 -0.04080538 0.08853699 0.0886851 0.16492037
0.09711855 -0.0020618455 0.08986952 -0.17962363 -0.12297666 0.07060982 0.02371212 0.03849717
-0.10453747 0.16640076 -6.031402e-05 -0.04661761 -0.09773934 0.09657131 0.08710592 0.20426448
0.06807644 -0.10847672 -0.024216756 0.0261027 -0.019515976 -0.15723355 -0.16606654 0.12757696
-0.04368625 0.006392245 0.053249206 -0.1900339 0.047027327 -0.018814344 -0.092574134 0.006296999
0.18263341 -0.0053264294 -0.116777174 -0.050803732 -0.06381535 -0.037879646 -0.057567053 0.18922627
0.08856662 0.13813348 0.0017998358 0.058798254 -0.048258204 0.09338121 0.0568145 0.09859713
0.41468135 0.43002152 0.18869253 -0.18232605 -0.17373279 0.07640902 -0.29392278 0.33364135
0.51580447 0.18260247 0.094494775 0.14501138 -0.4128033 -0.12155126 -0.32273465 0.015655112
0.07741603 -0.56485766 0.30904353 0.14278544 0.36617693 -0.14373899 -0.039993998 -0.061785996
-0.1458879 0.14534535 -0.19940585 0.32317796 0.029323762 -0.11097284 -0.034467805 -0.075170726

fc4.bias f4 [6]
00000000: e645 5d3b 1266 013e cb50 903d 905f 4a3d
00000010: fcdb 05be 2cd5 97bd
0.0033763587 0.12636593 0.0704666 0.04940754 -0.13072199 -0.07413706
